src/related_works/oglassesX/vestige_baseline_model.npz (npz, 894518 bytes, 19 tensors)

predictor/bnorm1/gamma f4 [96]
0	0x3f800000	1.0
1	0x3f800000	1.0
2	0x3f800000	1.0
3	0x3f800000	1.0
4	0x3f800000	1.0
5	0x3f800000	1.0
6	0x3f800000	1.0
7	0x3f800000	1.0
8	0x3f800000	1.0
9	0x3f800000	1.0
10	0x3f800000	1.0
11	0x3f800000	1.0
12	0x3f800000	1.0
13	0x3f800000	1.0
14	0x3f800000	1.0
15	0x3f800000	1.0
16	0x3f800000	1.0
17	0x3f800000	1.0
18	0x3f800000	1.0
19	0x3f800000	1.0
20	0x3f800000	1.0
21	0x3f800000	1.0
22	0x3f800000	1.0
23	0x3f800000	1.0
24	0x3f800000	1.0
25	0x3f800000	1.0
26	0x3f800000	1.0
27	0x3f800000	1.0
28	0x3f800000	1.0
29	0x3f800000	1.0
30	0x3f800000	1.0
31	0x3f800000	1.0
32	0x3f800000	1.0
33	0x3f800000	1.0
34	0x3f800000	1.0
35	0x3f800000	1.0
36	0x3f800000	1.0
37	0x3f800000	1.0
38	0x3f800000	1.0
39	0x3f800000	1.0
40	0x3f800000	1.0
41	0x3f800000	1.0
42	0x3f800000	1.0
43	0x3f800000	1.0
44	0x3f800000	1.0
45	0x3f800000	1.0
46	0x3f800000	1.0
47	0x3f800000	1.0
48	0x3f800000	1.0
49	0x3f800000	1.0
50	0x3f800000	1.0
51	0x3f800000	1.0
52	0x3f800000	1.0
53	0x3f800000	1.0
54	0x3f800000	1.0
55	0x3f800000	1.0
56	0x3f800000	1.0
57	0x3f800000	1.0
58	0x3f800000	1.0
59	0x3f800000	1.0
60	0x3f800000	1.0
61	0x3f800000	1.0
62	0x3f800000	1.0
63	0x3f800000	1.0
64	0x3f800000	1.0
65	0x3f800000	1.0
66	0x3f800000	1.0
67	0x3f800000	1.0
68	0x3f800000	1.0
69	0x3f800000	1.0
70	0x3f800000	1.0
71	0x3f800000	1.0
72	0x3f800000	1.0
73	0x3f800000	1.0
74	0x3f800000	1.0
75	0x3f800000	1.0
76	0x3f800000	1.0
77	0x3f800000	1.0
78	0x3f800000	1.0
79	0x3f800000	1.0
80	0x3f800000	1.0
81	0x3f800000	1.0
82	0x3f800000	1.0
83	0x3f800000	1.0
84	0x3f800000	1.0
85	0x3f800000	1.0
86	0x3f800000	1.0
87	0x3f800000	1.0
88	0x3f800000	1.0
89	0x3f800000	1.0
90	0x3f800000	1.0
91	0x3f800000	1.0
92	0x3f800000	1.0
93	0x3f800000	1.0
94	0x3f800000	1.0
95	0x3f800000	1.0

predictor/bnorm1/beta f4 [96]
0	0x00000000	0.0
1	0x00000000	0.0
2	0x00000000	0.0
3	0x00000000	0.0
4	0x00000000	0.0
5	0x00000000	0.0
6	0x00000000	0.0
7	0x00000000	0.0
8	0x00000000	0.0
9	0x00000000	0.0
10	0x00000000	0.0
11	0x00000000	0.0
12	0x00000000	0.0
13	0x00000000	0.0
14	0x00000000	0.0
15	0x00000000	0.0
16	0x00000000	0.0
17	0x00000000	0.0
18	0x00000000	0.0
19	0x00000000	0.0
20	0x00000000	0.0
21	0x00000000	0.0
22	0x00000000	0.0
23	0x00000000	0.0
24	0x00000000	0.0
25	0x00000000	0.0
26	0x00000000	0.0
27	0x00000000	0.0
28	0x00000000	0.0
29	0x00000000	0.0
30	0x00000000	0.0
31	0x00000000	0.0
32	0x00000000	0.0
33	0x00000000	0.0
34	0x00000000	0.0
35	0x00000000	0.0
36	0x00000000	0.0
37	0x00000000	0.0
38	0x00000000	0.0
39	0x00000000	0.0
40	0x00000000	0.0
41	0x00000000	0.0
42	0x00000000	0.0
43	0x00000000	0.0
44	0x00000000	0.0
45	0x00000000	0.0
46	0x00000000	0.0
47	0x00000000	0.0
48	0x00000000	0.0
49	0x00000000	0.0
50	0x00000000	0.0
51	0x00000000	0.0
52	0x00000000	0.0
53	0x00000000	0.0
54	0x00000000	0.0
55	0x00000000	0.0
56	0x00000000	0.0
57	0x00000000	0.0
58	0x00000000	0.0
59	0x00000000	0.0
60	0x00000000	0.0
61	0x00000000	0.0
62	0x00000000	0.0
63	0x00000000	0.0
64	0x00000000	0.0
65	0x00000000	0.0
66	0x00000000	0.0
67	0x00000000	0.0
68	0x00000000	0.0
69	0x00000000	0.0
70	0x00000000	0.0
71	0x00000000	0.0
72	0x00000000	0.0
73	0x00000000	0.0
74	0x00000000	0.0
75	0x00000000	0.0
76	0x00000000	0.0
77	0x00000000	0.0
78	0x00000000	0.0
79	0x00000000	0.0
80	0x00000000	0.0
81	0x00000000	0.0
82	0x00000000	0.0
83	0x00000000	0.0
84	0x00000000	0.0
85	0x00000000	0.0
86	0x00000000	0.0
87	0x00000000	0.0
88	0x00000000	0.0
89	0x00000000	0.0
90	0x00000000	0.0
91	0x00000000	0.0
92	0x00000000	0.0
93	0x00000000	0.0
94	0x00000000	0.0
95	0x00000000	0.0

predictor/bnorm1/avg_var f4 [96]
0	0x3424be21	1.5342859e-07
1	0x3b068b43	0.0020529784
2	0x35fcbaf1	1.882987e-06
3	0x3a11bea9	0.00055597216
4	0x39bcc0d6	0.00036001828
5	0x3a41ef46	0.000739802
6	0x398fe1b1	0.0002744324
7	0x3a4b9758	0.00077663874
8	0x37aa8257	2.0326273e-05
9	0x3ab8d5d2	0.0014101809
10	0x34a5c658	3.087796e-07
11	0x386c1c81	5.629333e-05
12	0x390b5974	0.00013289397
13	0x3a1c9cbf	0.0005974285
14	0x3896e283	7.1947485e-05
15	0x3a783827	0.00094688166
16	0x39c2c69d	0.00037150542
17	0x3a271c63	0.00063747744
18	0x397fea89	0.00024406066
19	0x320b7e02	8.119516e-09
20	0x32cec40b	2.4070706e-08
21	0x3a4776a2	0.0007608925
22	0x392739a5	0.00015947835
23	0x38a16b63	7.6970806e-05
24	0x3949a31f	0.00019229621
25	0x3a4dec36	0.00078553276
26	0x31d363c2	6.1522494e-09
27	0x39eb3233	0.00044860094
28	0x3682dbaf	3.8998764e-06
29	0x3a2eb87d	0.0006665064
30	0x3900e409	0.00012291981
31	0x3a2549c8	0.0006305245
32	0x34311294	1.6491168e-07
33	0x38a69e50	7.944985e-05
34	0x386c2e90	5.631015e-05
35	0x391492ec	0.00014169113
36	0x33ca607f	9.4239105e-08
37	0x398a10b9	0.0002633387
38	0x3982c202	0.0002494008
39	0x390e12bc	0.00013549154
40	0x3a58f88f	0.0008276784
41	0x3589cd33	1.0267016e-06
42	0x371ff78c	9.534775e-06
43	0x38dff464	0.0001067899
44	0x374406c5	1.16840865e-05
45	0x38563587	5.1071427e-05
46	0x38f056e8	0.00011460279
47	0x3a9833c7	0.001161211
48	0x39423b9f	0.00018523492
49	0x369e6e3d	4.7216004e-06
50	0x37c9d534	2.4060348e-05
51	0x3a6aa00d	0.0008950241
52	0x00000004	6e-45
53	0x392815fa	0.00016029915
54	0x387a1e97	5.9633134e-05
55	0x3a24b7ce	0.00062834925
56	0x3a043460	0.0005043205
57	0x360f3ebc	2.1345177e-06
58	0x3a5cffbc	0.00084304414
59	0x395c29ff	0.0002099648
60	0x3aaf1d5e	0.0013360193
61	0x375c80ec	1.3143039e-05
62	0x34531b52	1.9660845e-07
63	0x39d05e23	0.0003974299
64	0x38f9c4c3	0.00011909895
65	0x39f5673a	0.0004680695
66	0x3a31f890	0.0006789053
67	0x36bebd0c	5.684449e-06
68	0x2abc2ea0	3.342786e-13
69	0x3973246d	0.00023187856
70	0x39b7a6de	0.00035028806
71	0x39e8712e	0.00044334814
72	0x37a070ba	1.9125979e-05
73	0x3962cfcc	0.0002163045
74	0x3962ccdf	0.0002162936
75	0x3a9eba6c	0.0012110001
76	0x37103052	8.594319e-06
77	0x3a4f58a5	0.00079096324
78	0x39f0f93a	0.00045962055
79	0x391daf85	0.00015038073
80	0x39270592	0.00015928436
81	0x39b5d792	0.00034683623
82	0x38abda1d	8.194542e-05
83	0x3709bcdf	8.209811e-06
84	0x3a389e8d	0.0007042669
85	0x388c441d	6.688407e-05
86	0x3abbe8dc	0.0014336365
87	0x33fd0cab	1.1783535e-07
88	0x3747513b	1.1880237e-05
89	0x33b6cb30	8.511995e-08
90	0x3322956c	3.7854463e-08
91	0x3939a2bf	0.00017703602
92	0x2b5303e1	7.496764e-13
93	0x3a362027	0.000694754
94	0x3797bb57	1.808784e-05
95	0x3a94058c	0.0011293157

predictor/bnorm1/avg_mean f4 [96]
0	0x3930ca75	0.00016860089
1	0x3e33b58d	0.17549725
2	0x3a8f86f2	0.0010950251
3	0x3df42f4d	0.119230844
4	0x3d48bbdb	0.049007278
5	0x3dc298af	0.09501778
6	0x3d357e47	0.04430988
7	0x3dd01955	0.10161082
8	0x3b8f709b	0.0043774373
9	0x3e0f678b	0.14004342
10	0x3988031d	0.0002594226
11	0x3c019908	0.007910021
12	0x3cba9674	0.02277682
13	0x3db759dc	0.08952686
14	0x3c93a0c4	0.018020995
15	0x3e538206	0.20655069
16	0x3e07b1c0	0.132514
17	0x3ded693d	0.11592338
18	0x3cc45845	0.023967871
19	0x379492ca	1.7711329e-05
20	0x382b56f8	4.0850573e-05
21	0x3def8fb5	0.11697332
22	0x3d8f5d97	0.07000273
23	0x3c6bc88a	0.014391074
24	0x3d35e16a	0.044404425
25	0x3d6f4408	0.05841449
26	0x37184a7f	9.077251e-06
27	0x3d9ffd2f	0.07811963
28	0x3ad1068f	0.0015947389
29	0x3e3679ea	0.17819944
30	0x3d033b5f	0.032039043
31	0x3d95f022	0.07321192
32	0x394b5712	0.00019392025
33	0x3cb93f36	0.02261315
34	0x3c948a92	0.018132482
35	0x3d5d4169	0.054017458
36	0x38d601b8	0.00010204635
37	0x3d8e4f08	0.06948668
38	0x3dca658c	0.0988265
39	0x3d13caaa	0.036081947
40	0x3db24b8b	0.08705815
41	0x39afadf0	0.00033508195
42	0x3b42219a	0.002962208
43	0x3d02677a	0.031836964
44	0x3b9bffd1	0.0047607203
45	0x3c1294ad	0.00894658
46	0x3cc585a7	0.024111582
47	0x3e2e625d	0.1702971
48	0x3da5ac09	0.08089454
49	0x3b0cc9e2	0.0021482636
50	0x3bd22ff2	0.006414407
51	0x3dba50bf	0.09097432
52	0x00000000	0.0
53	0x3cd8791b	0.026424935
54	0x3c86d8f1	0.016460868
55	0x3db129ac	0.086505264
56	0x3d22b32d	0.039721657
57	0x3a468bf1	0.00075739535
58	0x3d5d57e2	0.05403889
59	0x3d33b78e	0.043876223
60	0x3e36e5a7	0.17861043
61	0x3ba55e40	0.005046636
62	0x391d741e	0.00015015944
63	0x3d742ef3	0.059615087
64	0x3ccb4862	0.024814788
65	0x3ddf44df	0.10901808
66	0x3e0490fe	0.12945935
67	0x3abd27f2	0.001443146
68	0x3152124c	3.0569423e-09
69	0x3d0b66b0	0.034033477
70	0x3defb2fd	0.11704061
71	0x3df5fade	0.1201074
72	0x3af50ba9	0.0018695492
73	0x3ddc30c5	0.107514895
74	0x3d5ff37b	0.05467556
75	0x3daf7dce	0.08568917
76	0x3b603a18	0.0034214314
77	0x3dd04078	0.101685464
78	0x3dd22a5e	0.10261987
79	0x3d15e0b0	0.03659123
80	0x3c91703b	0.017753711
81	0x3d78c475	0.06073423
82	0x3d090ede	0.033461444
83	0x3b7013b8	0.0036632847
84	0x3d908487	0.070565276
85	0x3ca37697	0.019954009
86	0x3e3aa745	0.18227871
87	0x39319494	0.00016935385
88	0x3b7187ec	0.0036854697
89	0x38f76456	0.00011796567
90	0x3730aef6	1.0531154e-05
91	0x3cfac69e	0.030612286
92	0x327b1882	1.4615695e-08
93	0x3e38dd04	0.18053061
94	0x3bd97778	0.0066365562
95	0x3dcccac9	0.09999616

predictor/l3/W f4 [1, 6144]
0	0xbcd65c27	-0.026166989
1	0x3963686c	0.00021687307
2	0xbc4b4e63	-0.012408826
3	0xbca20319	-0.019776868
4	0xbb5dbb29	-0.003383348
5	0x3c5e9d50	0.013587311
6	0x3ba1d0f1	0.004938238
7	0x3b2a5f94	0.002599691
8	0x3b5c3b74	0.0033604773
9	0x3c26fd54	0.010192234
10	0xb9b4ef3d	-0.00034510522
11	0x3ca03fc5	0.019561658
12	0xbc2ed568	-0.010670997
13	0x3b71867c	0.003685384
14	0xbb75cb9d	-0.0037505396
15	0xbc41f981	-0.0118392715
16	0x3b04013d	0.002014234
17	0x3c738b3b	0.014864738
18	0x3c88e3ae	0.016710129
19	0xba9218bf	-0.0011146291
20	0xbc7d8d51	-0.015475587
21	0x3cac000c	0.020996116
22	0xba4e72b2	-0.00078753673
23	0xbac56e8a	-0.001506285
24	0xbb4ceb44	-0.003126816
25	0xbc8e0433	-0.017335987
26	0x3b983ce4	0.0046459306
27	0x3c9a9734	0.018870927
28	0xbc973bbf	-0.018461106
29	0xbc0446dd	-0.008073536
30	0xbb153ee6	-0.0022773086
31	0xbb5f08b1	-0.003403228
32	0x3bf51758	0.0074795894
33	0xbc221fe9	-0.009895303
34	0x3b0787df	0.002068035
35	0x3c0df511	0.008664385
36	0x3b8630db	0.0040951795
37	0xbc721503	-0.014775517
38	0xbc02e4ba	-0.007989103
39	0xbbf93245	-0.0076048695
40	0x3a932135	0.0011225106
41	0x3c0e306f	0.00867854
42	0x3b9fdd3b	0.0048786676
43	0xbc0470e2	-0.008083554
44	0x3bf90281	0.0075991754
45	0xbbf7d6af	-0.007563434
46	0x3c1ddab3	0.0096346615
47	0x3a474466	0.000760144
48	0xbb266a49	-0.002539294
49	0x3ca9d61f	0.020731984
50	0xbae07536	-0.0017124775
51	0x3b5a644b	0.003332394
52	0xbd06d61a	-0.032919027
53	0xbc66c44c	-0.014084887
54	0xbca2bcd2	-0.019865427
55	0xbbd04c99	-0.0063567874
56	0x3cd7e1fe	0.026352879
57	0x3bdec6e0	0.00679861
58	0x3cf1e9df	0.029530464
59	0xba84a323	-0.0010119419
60	0x3c02a520	0.007973939
61	0x3b57cbcd	0.0032927871
62	0x3ca55943	0.020184165
63	0x3b63b253	0.003474374
64	0x3c05b6bb	0.008161242
65	0xbbbfc79d	-0.005852653
66	0x3bee1478	0.0072656237
67	0xbcfe5fd6	-0.031051558
68	0xbbeae7eb	-0.00716876
69	0x3b50c23a	0.003185405
70	0x3c4d10ce	0.012516214
71	0xbb51bf3b	-0.0032004851
72	0xbb9f5c10	-0.0048632696
73	0x3b2dec69	0.0026538617
74	0xbc11ec44	-0.008906428
75	0x3c965f5b	0.018356016
76	0xbb915b53	-0.0044359355
77	0xbc0c4882	-0.008562209
78	0xbc1c3eee	-0.009536488
79	0x3c29c5e8	0.010362126
80	0xbc22b9e3	-0.009932014
81	0x3bedefcc	0.007261252
82	0xbc4bfe22	-0.012450727
83	0x3b4de500	0.0031417012
84	0xbafbd290	-0.0019212533
85	0xbbe6c69b	-0.0070427186
86	0x3c0d9b2b	0.008642952
87	0xbb8c27e4	-0.0042772163
88	0x3ca91900	0.020641804
89	0x3c8d52b5	0.017251352
90	0xbcc3fcdd	-0.023924286
91	0xbc50ea70	-0.012751207
92	0x3c688465	0.014191722
93	0xbbe7e062	-0.007076309
94	0x3bcd1a7d	0.006259261
95	0xbb9c7f13	-0.0047758906
96	0x3b0f481e	0.0021863054
97	0x3cade5dd	0.021227771
98	0x3cd9ebb2	0.026601646
99	0xbbd97d87	-0.0066372785
100	0x3a852f8d	0.0010161266
101	0xbbed7694	-0.0072468016
102	0x3bc50800	0.0060129166
103	0x3c182b00	0.009287596
104	0x3c6f1d1f	0.014594345
105	0x3bb512b4	0.005525911
106	0x3a840d47	0.0010074758
107	0x3b1bcf43	0.002377466
108	0x3c14d8a0	0.009084851
109	0xbca6fb5e	-0.020383533
110	0xbbb316b6	-0.005465354
111	0x3cb2c9d8	0.021824762
112	0x3c72f4e5	0.014828895
113	0xbcb98c1b	-0.022649815
114	0x3c6b589c	0.014364388
115	0xbb92cb8f	-0.0044798325
116	0x3b292bf9	0.0025813563
117	0x3bdc2128	0.0067178197
118	0x3b6d70e4	0.0036230618
119	0x3cf069aa	0.02934726
120	0xbc1d6a8c	-0.009607922
121	0xbbb2255b	-0.005436582
122	0xbbae1453	-0.0053124814
123	0xbb3c385b	-0.0028720114
124	0xbc0f6f8a	-0.00875462
125	0xbc038fee	-0.008029921
126	0x3c1557a2	0.009115132
127	0x3c04861c	0.008088615
128	0xbc0be8ae	-0.008539362
129	0x3c88c2a2	0.01669437
130	0xb78945e5	-1.636422e-05
131	0xbb8ca91e	-0.0042926213
132	0x3b920aa7	0.0044568363
133	0xbc8bdc1a	-0.017072726
134	0xbc5b5ab3	-0.013388324
135	0xbbf37c20	-0.0074305683
136	0xbcae4bc1	-0.021276357
137	0xbc8791a4	-0.016548939
138	0xbc72efd4	-0.014827687
139	0x3c4bc4e4	0.012437079
140	0xbb0697be	-0.0020537223
141	0xbc24fdee	-0.010070307
142	0x3c72cdd0	0.014819577
143	0xbcafa83d	-0.021442527
144	0x3bd2e404	0.006435873
145	0x3bdd0a04	0.0067455787
146	0xb8c62832	-9.448863e-05
147	0xbcf0373a	-0.02932321
148	0xbb004b57	-0.0019576156
149	0x3c33ea32	0.0109811295
150	0x3c592566	0.013253545
151	0x3c525e02	0.012839796
152	0x3c1c8cbd	0.009555039
153	0x3c598012	0.013275163
154	0x3b9be689	0.0047577065
155	0xba57d44b	-0.0008233233
156	0x3bb76db3	0.005597794
157	0xbcd3818b	-0.025818607
158	0x3c677240	0.01412636
159	0x3cc42e37	0.023947818
160	0x3ccb06be	0.024783488
161	0x3be3d0f6	0.0069524003
162	0xbc957930	-0.018246263
163	0xbc949967	-0.018139554
164	0xbd0bea25	-0.034158845
165	0xbc02b450	-0.00797756
166	0x3b07553c	0.002065017
167	0xbb911b10	-0.004428275
168	0xbbff1d9d	-0.0077855126
169	0xbbd5950c	-0.006518012
170	0xbb6716c5	-0.0035261374
171	0xbc761e0a	-0.01502181
172	0xbc69c33e	-0.014267741
173	0xbbae3dec	-0.0053174403
174	0xba9f871b	-0.0012171002
175	0xbcd7ff14	-0.026366748
176	0xbc98296e	-0.018574443
177	0x3c44384d	0.011976314
178	0xbbbb70e5	-0.005720245
179	0x3ca7cf66	0.020484637
180	0x3aa2a254	0.0012407997
181	0x3b9bb920	0.004752293
182	0x3c30b2ce	0.010784818
183	0x3c272e56	0.010203918
184	0x3c6b8966	0.01437602
185	0x3c8942f2	0.016755555
186	0x3a925a3e	0.001116581
187	0x3c8ad3f8	0.016946778
188	0xbbfd33ef	-0.007727138
189	0xbb8712b1	-0.0041221012
190	0x3bbb71e1	0.0057203625
191	0xbca57674	-0.020198084
192	0x3cc540ed	0.02407881
193	0xbba7b207	-0.005117658
194	0xbc72104b	-0.014774392
195	0xbc830bf6	-0.015996914
196	0x3b72d32f	0.0037052145
197	0xbbaeac4f	-0.0053305994
198	0xbbab5716	-0.0052288873
199	0x3c058928	0.008150376
200	0xbc3bb27e	-0.01145613
201	0x3c1b6b0d	0.009485972
202	0xbba7b8d4	-0.005118469
203	0x3b3724fc	0.0027945628
204	0xbc26d184	-0.010181788
205	0x3c793caa	0.015212217
206	0x3b54562e	0.00324
207	0x3b5a510e	0.0033312473
208	0x3a9b8445	0.0011864981
209	0x3cdc7ab3	0.026913976
210	0xbb98f403	-0.0046677603
211	0xbbe772b3	-0.0070632338
212	0xbc11d402	-0.008900644
213	0x3cbb23f3	0.02284429
214	0x3c28ffc7	0.010314888
215	0x3c0c2204	0.008553032
216	0x3be61ec2	0.0070227096
217	0x3c6f77d7	0.014615974
218	0x3baf76e9	0.0053547514
219	0x3a37e1df	0.00070145534
220	0xbbad9911	-0.005297788
221	0xbbe14581	-0.0068747406
222	0x3bed4d59	0.0072418866
223	0xbb7dab19	-0.0038706718
224	0xbb0fd3be	-0.0021946277
225	0x3c2d3bcf	0.0105733415
226	0x3a9e2a01	0.0012066961
227	0x3cbfa8a1	0.023395838
228	0x3b66b196	0.0035201064
229	0xbaa757c7	-0.0012767249
230	0x3ab14b8d	0.0013526544
231	0xbc295ea7	-0.010337508
232	0xbbcd0877	-0.0062571126
233	0x3c3e2501	0.011605502
234	0xbbafeec4	-0.0053690393
235	0x3b3097ae	0.0026945877
236	0xbb599996	-0.0033203117
237	0x3c62c345	0.013840501
238	0x3c0f3a55	0.008741935
239	0x3b55def7	0.0032634118
240	0x39b3d87a	0.00034302828
241	0x3b7495a8	0.0037320647
242	0xbb91ece0	-0.0044532865
243	0xbba14e8c	-0.0049226936
244	0xbc12e13a	-0.008964831
245	0x3abc206d	0.0014352925
246	0xbca25780	-0.019817114
247	0x3c9bdc2b	0.019025883
248	0x3c966052	0.018356476
249	0x3b72c0fe	0.0037041302
250	0xba2b1a12	-0.0006527017
251	0x3c404b9b	0.011736776
252	0xbc72addd	-0.01481196
253	0x3bc42449	0.005985771
254	0x3bf2bbf4	0.0074076597
255	0x3a98f9f6	0.0011671174

predictor/conv1/W f4 [96, 1, 128]
0	0xbd8b92b5	-0.068150915
1	0xbd3b84dc	-0.045781
2	0x3c05ee90	0.0081745535
3	0x3d3b29ed	0.04569428
4	0xbd67534b	-0.05647592
5	0xbd3859c2	-0.045007475
6	0x3bafa296	0.005359958
7	0x3d153078	0.036423177
8	0xbd840167	-0.0644558
9	0xbd8770f9	-0.06613345
10	0xbc6eafbc	-0.0145682655
11	0xbda27a80	-0.07933521
12	0x3dd132cb	0.10214766
13	0x3d9f8e3f	0.07790803
14	0x3e246fa8	0.16058218
15	0xbdc5c30e	-0.09656344
16	0xbc0815c7	-0.008305973
17	0x3da01cbe	0.07817982
18	0x3e1e0f61	0.15435554
19	0x3d18f3fd	0.03734206
20	0x3c5b0d51	0.013369874
21	0x3d9f030f	0.07764255
22	0x3c5ab320	0.013348371
23	0x3d239e98	0.03994617
24	0x3d9f3174	0.07773104
25	0x3c7208ed	0.014772636
26	0x3b719dda	0.0036867769
27	0xbe33c432	-0.17555311
28	0xbd751a54	-0.05983956
29	0xbd2a2c96	-0.041546427
30	0xbd82008d	-0.06347761
31	0x3d489e0a	0.048978843
32	0xbdaa3158	-0.08310193
33	0x3c5264e3	0.012841436
34	0x3da5c12e	0.08093487
35	0x3e07f1d3	0.13275842
36	0x3bb2ae3c	0.0054528993
37	0x3d9be330	0.07611692
38	0xbcd374f1	-0.025812598
39	0x3e0a27da	0.13491765
40	0x3d060f82	0.032729633
41	0xbd769ee1	-0.060210112
42	0x3cf09f4f	0.02937284
43	0xbd5eb486	-0.05437138
44	0xbe6369e5	-0.22208364
45	0x3dfdcde8	0.12392789
46	0x3d8d162e	0.06888996
47	0xbd2a2806	-0.041542076
48	0x3c7c7ae8	0.0154101625
49	0x3d3748b3	0.044747066
50	0xbe0f299c	-0.13980716
51	0xbd561273	-0.05226369
52	0x3dd9854d	0.10621128
53	0xbd805cb1	-0.062676795
54	0x3c82f171	0.015984269
55	0xbd258561	-0.040410403
56	0xbdab6b97	-0.083701305
57	0x3d833978	0.06407446
58	0x3e1ea3f7	0.15492235
59	0x3e1e8a5b	0.15482466
60	0x3dc39595	0.09550015
61	0x3ddfd8f5	0.10930053
62	0x3d89f146	0.067354724
63	0x3abca65a	0.0014392838
64	0x3c0174fc	0.007901426
65	0xbd9b5256	-0.07584064
66	0xbc9245a8	-0.01785548
67	0x3ddc3261	0.107517965
68	0xbd5f76bc	-0.054556593
69	0x3d7f2aea	0.062296785
70	0xbdc29d3c	-0.09502646
71	0xbd22ea99	-0.03977451
72	0x3cbfe58e	0.02342489
73	0xbda21f6f	-0.07916152
74	0xbd933b75	-0.07189075
75	0xbc9e2845	-0.019306311
76	0xbd37aa3f	-0.044840094
77	0x3bd79822	0.006579415
78	0xbcfb55ac	-0.0306805
79	0xbd461887	-0.048363235
80	0xbcab9a8e	-0.02094772
81	0x3e40dc31	0.18833996
82	0x3b71f50b	0.0036919739
83	0x3dcc9018	0.09988421
84	0xbdc250ce	-0.094880685
85	0x3dcc4a86	0.09975152
86	0xb9e84d3a	-0.00044308027
87	0xbd2e5045	-0.04255702
88	0x3c11df71	0.00890337
89	0x3c8a998f	0.016918926
90	0x3e35ebc3	0.17765717
91	0x3d0d704e	0.03453093
92	0x3da6b915	0.0814077
93	0x3d84461f	0.06458687
94	0x3da8aeda	0.08236475
95	0x3d03ceaf	0.03217953
96	0x3e01c625	0.12673242
97	0x3cf595c2	0.029978637
98	0x3c9501aa	0.01818927
99	0xbdf6c551	-0.12049354
100	0x3d9d740b	0.07688149
101	0x3dad3142	0.08456661
102	0xbe27c227	-0.16382657
103	0x3bb81247	0.005617413
104	0xbdb14986	-0.086566016
105	0x3e79102f	0.2432258
106	0x3e0f0f64	0.13970715
107	0xbe1c240c	-0.15248126
108	0xbdc7ff07	-0.097654395
109	0x3d618d60	0.055066466
110	0x3c9dc675	0.01925967
111	0xbe08777f	-0.13326834
112	0xbde4bdac	-0.111689895
113	0x3d3adf4f	0.04562312
114	0x3cfc7982	0.030819658
115	0x3c4c9f28	0.012489118
116	0x3c7a0f34	0.015262414
117	0x3d61b56c	0.055104658
118	0xbd915600	-0.07096481
119	0x3dcf48aa	0.101212814
120	0x3d03e6ea	0.03220264
121	0xbc0ab718	-0.0084665045
122	0x3c9766cf	0.01848164
123	0x3d4579a1	0.048211697
124	0x3d98796c	0.074450344
125	0xbd6bd5f5	-0.057577092
126	0x3d43bb8a	0.047786273
127	0xbe4e154f	-0.20125316
128	0xbd38fc92	-0.045162745
129	0xbe016d1f	-0.12639283
130	0xbd938e7f	-0.07204913
131	0x3d4b53a4	0.049640313
132	0xbd3023b3	-0.043002795
133	0x3d0c0b5c	0.03419052
134	0x3d3c021c	0.04590045
135	0xbce81d6c	-0.028334342
136	0x3cad2eb5	0.021140436
137	0x3e23bc80	0.15989876
138	0xbd356f32	-0.044295497
139	0xbce61a71	-0.02808878
140	0x3dd60c28	0.10451537
141	0xb97fe7b9	-0.00024405018
142	0x3e08d77d	0.13363452
143	0xbbee4fce	-0.007272697
144	0xbd3b7177	-0.045762505
145	0xbb8b5f8b	-0.004253333
146	0x3d43d812	0.047813483
147	0x3d2280bb	0.03967355
148	0x3cba9d55	0.0227801
149	0x3dba9298	0.09109992
150	0xbe19fcb3	-0.15037803
151	0xbbadcbee	-0.0053038513
152	0x3e152a0e	0.14566824
153	0x3c25067c	0.010072347
154	0xbd8431d6	-0.06454818
155	0x3ce3f720	0.0278278
156	0x3c42bfc4	0.011886541
157	0x3a9a08ab	0.0011751851
158	0xbd82c3a1	-0.063849695
159	0x3c2ac3cd	0.010422659
160	0xbd9ceef5	-0.07662765
161	0x3df604fa	0.12012668
162	0xbd21cf08	-0.03950408
163	0xbd67a046	-0.056549333
164	0xbd583f66	-0.052794836
165	0x3c0bc651	0.008531169
166	0x3d6470c6	0.05577161
167	0x3b3bbdaa	0.0028646984
168	0xbdfc4d09	-0.12319381
169	0x3db48b4d	0.08815632
170	0x3c47c64f	0.012193277
171	0x3c67f084	0.0141564645
172	0x3c109552	0.008824663
173	0xbc95d6a9	-0.018290835
174	0xbe0256f0	-0.12728477
175	0x3bb180c9	0.0054169637
176	0xbd3d8a1d	-0.046274293
177	0xbe247504	-0.16060263
178	0x3c41748f	0.011807575
179	0x3d5a387d	0.053276528
180	0x3dc87a25	0.09788922
181	0xbcd6d379	-0.026223885
182	0xbe158a08	-0.14603436
183	0x3d75842a	0.059940495
184	0xbe370ba7	-0.17875539
185	0x3d16769a	0.0367342
186	0x3cd1df23	0.025619095
187	0xbc9a0a58	-0.01880376
188	0x3d980533	0.07422867
189	0xbd935432	-0.07193793
190	0x3e25e6f7	0.16201387
191	0xbc9dfd24	-0.019285746
192	0xbcb05435	-0.021524528
193	0xbd33ca0e	-0.043893866
194	0xbc5a16f6	-0.013311138
195	0x3d3595d8	0.044332355
196	0xbc42ebb7	-0.011897019
197	0x3c9f316e	0.01943275
198	0xbe04dda7	-0.12975179
199	0xbb9d9fda	-0.0048103156
200	0xbdfb25a4	-0.12263039
201	0xbca139ff	-0.019680975
202	0xbbc4357d	-0.0059878216
203	0xbd8b5e8e	-0.06805144
204	0x3d4af473	0.04954953
205	0xbd1e4b35	-0.03864594
206	0xbd4933cc	-0.049121663
207	0x3dc14301	0.09436608
208	0xbe407878	-0.18795955
209	0x3da9af3a	0.08285375
210	0x3d8dd79f	0.06925892
211	0x3d970d80	0.07375622
212	0xbcc1414b	-0.023590704
213	0xbe368394	-0.1782363
214	0xbd8578b3	-0.06517162
215	0x3dbe3f7a	0.09289451
216	0x3d9eec9f	0.07759976
217	0xbd80a5af	-0.06281602
218	0xbd0dffca	-0.034667768
219	0xbe13724a	-0.14399067
220	0x3e302e9d	0.17205282
221	0x3d5f805f	0.054565784
222	0xbe690217	-0.22754703
223	0x3e60b944	0.21945673
224	0x3d3fa061	0.04678381
225	0x3d94ea6a	0.072712734
226	0xbc4761ca	-0.012169311
227	0x3ded8422	0.11597468
228	0xbc0d911b	-0.008640553
229	0xbca01fe4	-0.019546457
230	0x3dbad426	0.09122495
231	0xbe4d8dcb	-0.20073621
232	0x3cb0c6aa	0.021579105
233	0x3e0e7ae5	0.13914068
234	0xbd8a31a3	-0.06747749
235	0x3d333e7e	0.04376077
236	0xbdac22fa	-0.08405109
237	0xbd398816	-0.045295797
238	0xbb7bee8d	-0.0038441748
239	0x3e0b1af5	0.13584502
240	0xbdf493db	-0.11942264
241	0x3d943012	0.07235731
242	0xbda27880	-0.0793314
243	0xbd933e96	-0.07189672
244	0xbe2d178b	-0.16903512
245	0x3dde9d90	0.108698964
246	0x3dd3fec0	0.10351324
247	0x3de36600	0.11103439
248	0xbd63c099	-0.055603597
249	0xbe310795	-0.17288049
250	0xbcbd40c4	-0.023102172
251	0xbdd44712	-0.10365118
252	0xbdbe4f4e	-0.0929247
253	0xbd9c4228	-0.07629806
254	0xbde029ac	-0.10945448
255	0xbd58f5f4	-0.052968934

predictor/conv1/b f4 [96]
0	0x00000000	0.0
1	0x00000000	0.0
2	0x00000000	0.0
3	0x00000000	0.0
4	0x00000000	0.0
5	0x00000000	0.0
6	0x00000000	0.0
7	0x00000000	0.0
8	0x00000000	0.0
9	0x00000000	0.0
10	0x00000000	0.0
11	0x00000000	0.0
12	0x00000000	0.0
13	0x00000000	0.0
14	0x00000000	0.0
15	0x00000000	0.0
16	0x00000000	0.0
17	0x00000000	0.0
18	0x00000000	0.0
19	0x00000000	0.0
20	0x00000000	0.0
21	0x00000000	0.0
22	0x00000000	0.0
23	0x00000000	0.0
24	0x00000000	0.0
25	0x00000000	0.0
26	0x00000000	0.0
27	0x00000000	0.0
28	0x00000000	0.0
29	0x00000000	0.0
30	0x00000000	0.0
31	0x00000000	0.0
32	0x00000000	0.0
33	0x00000000	0.0
34	0x00000000	0.0
35	0x00000000	0.0
36	0x00000000	0.0
37	0x00000000	0.0
38	0x00000000	0.0
39	0x00000000	0.0
40	0x00000000	0.0
41	0x00000000	0.0
42	0x00000000	0.0
43	0x00000000	0.0
44	0x00000000	0.0
45	0x00000000	0.0
46	0x00000000	0.0
47	0x00000000	0.0
48	0x00000000	0.0
49	0x00000000	0.0
50	0x00000000	0.0
51	0x00000000	0.0
52	0x00000000	0.0
53	0x00000000	0.0
54	0x00000000	0.0
55	0x00000000	0.0
56	0x00000000	0.0
57	0x00000000	0.0
58	0x00000000	0.0
59	0x00000000	0.0
60	0x00000000	0.0
61	0x00000000	0.0
62	0x00000000	0.0
63	0x00000000	0.0
64	0x00000000	0.0
65	0x00000000	0.0
66	0x00000000	0.0
67	0x00000000	0.0
68	0x00000000	0.0
69	0x00000000	0.0
70	0x00000000	0.0
71	0x00000000	0.0
72	0x00000000	0.0
73	0x00000000	0.0
74	0x00000000	0.0
75	0x00000000	0.0
76	0x00000000	0.0
77	0x00000000	0.0
78	0x00000000	0.0
79	0x00000000	0.0
80	0x00000000	0.0
81	0x00000000	0.0
82	0x00000000	0.0
83	0x00000000	0.0
84	0x00000000	0.0
85	0x00000000	0.0
86	0x00000000	0.0
87	0x00000000	0.0
88	0x00000000	0.0
89	0x00000000	0.0
90	0x00000000	0.0
91	0x00000000	0.0
92	0x00000000	0.0
93	0x00000000	0.0
94	0x00000000	0.0
95	0x00000000	0.0

predictor/Att1/l_q2/W f4 [96, 384, 1]
0	0xbcf80ab7	-0.030278547
1	0xbd88331b	-0.066503726
2	0x3d0cdbd8	0.034389347
3	0xbcb53d48	-0.022123948
4	0x3d056e48	0.032575876
5	0xbb4e241a	-0.0031454624
6	0xbca15810	-0.019695312
7	0xbcfce004	-0.030868538
8	0xbbdc9c52	-0.006732502
9	0x3cb05eca	0.021529574
10	0xbbfb5521	-0.0076700603
11	0xbd35f13f	-0.044419523
12	0x3cbb3003	0.022850042
13	0xbdbbe8cd	-0.091752626
14	0x3d9987bf	0.07496595
15	0xbd69f95b	-0.05712257
16	0x3d17413e	0.036927454
17	0x3d2e6c58	0.042583793
18	0x3deb8dda	0.115016654
19	0x3adbdf01	0.0016774834
20	0xbde6bcf3	-0.11266508
21	0xbc428c5d	-0.0118742855
22	0x3ce1acb2	0.027548168
23	0x3d514da4	0.051099434
24	0x3db0ce44	0.08633092
25	0xbb27158b	-0.0025495018
26	0x3cdd8b15	0.027043859
27	0x3d98aafa	0.07454486
28	0xbbd7d96b	-0.0065871975
29	0x3c3a2558	0.0113614425
30	0xbd35989b	-0.04433499
31	0x3d6ede5d	0.05831753
32	0x3bcadb31	0.0061906804
33	0x3d405ae2	0.046961673
34	0x3ce32435	0.027727226
35	0xbacec3f1	-0.0015774948
36	0x3d9e07ad	0.07716308
37	0x38cf5be0	9.887642e-05
38	0xbb2be056	-0.0026226244
39	0x3d4e7988	0.05040887
40	0x3d16b1e7	0.036790755
41	0xbd3e8e20	-0.04652226
42	0xbda46b0c	-0.0802823
43	0xbcb1c515	-0.021700421
44	0xbcaae9e1	-0.020863475
45	0x3cdb92de	0.02680343
46	0xbd9d3906	-0.07676892
47	0x3ad1305d	0.0015959848
48	0xbc6a1959	-0.01428827
49	0x3bac11ca	0.005251144
50	0xbd9a0aca	-0.07521589
51	0xbca19ea2	-0.019728962
52	0x3d43ed6b	0.04783384
53	0xbda40978	-0.080096185
54	0xbdbade1f	-0.091243975
55	0x3bd802a4	0.0065921117
56	0xbd01f83d	-0.03173088
57	0x3bc40586	0.0059821038
58	0x3d244821	0.04010785
59	0xbb8a9ef7	-0.004230376
60	0x3c1b2c3e	0.009470997
61	0xbdd4716b	-0.10373195
62	0x3cbf0526	0.023317885
63	0xbb558396	-0.0032579652
64	0x3ca19fb1	0.019729467
65	0x3d360aaf	0.044443782
66	0xbcd2bde8	-0.02572532
67	0xbcb684ba	-0.022280086
68	0xbc0dffd7	-0.008666954
69	0x3c5e4fb7	0.01356881
70	0xbd360778	-0.044440717
71	0xbc1bb981	-0.009504677
72	0x3bb794e9	0.0056024683
73	0xbdb39d68	-0.08770257
74	0xbaae7b0b	-0.0013311816
75	0x3d9772b9	0.073949285
76	0xbc9ff64c	-0.019526623
77	0x3cde9226	0.027169298
78	0x3ceb635c	0.028733902
79	0xbd2a9825	-0.041649003
80	0x3ccc9e89	0.02497794
81	0xbd5ec839	-0.054390166
82	0xbd688832	-0.05677051
83	0x3ce43891	0.027859004
84	0x3d295622	0.04134191
85	0x3e27039d	0.16309972
86	0xbdb1f37c	-0.08689019
87	0xbd01873a	-0.031623103
88	0xbd8e9d6e	-0.06963621
89	0xbe08654f	-0.13319896
90	0xbd43742b	-0.04771821
91	0x3c311137	0.010807327
92	0x3d8da766	0.06916694
93	0x3cfd175c	0.030894928
94	0xbd6579d6	-0.056024395
95	0xbd58c66e	-0.052923612
96	0xbcef7891	-0.029232295
97	0x3db10bf3	0.08644857
98	0xbcca79ed	-0.024716342
99	0x3d2f262a	0.042761005
100	0xbd6ab37c	-0.057300076
101	0xbd149450	-0.036274254
102	0xbcfe891b	-0.031071236
103	0x3ddfa320	0.109197855
104	0xbb72016c	-0.0036927117
105	0x3cea3818	0.0285912
106	0x3cf37058	0.029716656
107	0x3c0b65b2	0.008508133
108	0x3b73126a	0.0037089833
109	0xbcf92b95	-0.03041629
110	0x3c481d6d	0.012214047
111	0x3c9184df	0.017763553
112	0xbcc4c849	-0.024021285
113	0xbb169d8e	-0.0022982094
114	0xbd23b774	-0.039969876
115	0xbd499a6d	-0.049219538
116	0x3be202c8	0.006897304
117	0x3d0edbbe	0.03487753
118	0x3dc9903c	0.09841964
119	0xbd564bff	-0.05231857
120	0xbd3e2a35	-0.04642697
121	0xbda9388f	-0.08262741
122	0xbc6e1a18	-0.014532588
123	0xbca9790c	-0.020687602
124	0x3d22aac0	0.03971362
125	0x3cccf853	0.025020754
126	0xbd599aec	-0.05312626
127	0x3d1bb380	0.03801298
128	0xbc61a2d9	-0.013771736
129	0xbd93e224	-0.07220867
130	0xbdb32401	-0.087471016
131	0x3d189249	0.037248883
132	0x3ccdc325	0.025117466
133	0x3d751b5e	0.059840553
134	0x3cf739e6	0.030178975
135	0xbdbf79ad	-0.0934938
136	0xbd9651ef	-0.07339846
137	0xbce3e756	-0.02782027
138	0x3d0daad5	0.034586746
139	0xbd7aac4e	-0.06119948
140	0x3ca76dc9	0.020438092
141	0x3dc5355e	0.096293196
142	0xbc958d38	-0.018255815
143	0xbd8fbad2	-0.07018055
144	0xbdc52efd	-0.09628103
145	0x3d18e1b3	0.03732462
146	0xbc65370d	-0.013990176
147	0x3d69a4f4	0.057042077
148	0x3da15e7b	0.07879349
149	0x3ca1a232	0.019730661
150	0xbdd4246c	-0.103585094
151	0x3ca5bb3a	0.020230878
152	0xbca70c77	-0.020391686
153	0x3d82da3e	0.06389283
154	0xbd0181f4	-0.031618074
155	0x3d163ae6	0.036677264
156	0x3ca25cee	0.019819703
157	0x3cdcdb24	0.026959963
158	0xbd64ba0b	-0.055841487
159	0x3d2afd7b	0.041745644
160	0xbca19873	-0.019726014
161	0x3caba469	0.02095242
162	0xbc28568f	-0.010274543
163	0x3cd678eb	0.026180705
164	0x3bd770d7	0.006574731
165	0x3d8db250	0.06918776
166	0xbca7fe3c	-0.02050697
167	0xbd40af95	-0.047042448
168	0x3cf66738	0.030078515
169	0x3d26f4a4	0.04076065
170	0xbd3374c9	-0.043812547
171	0xbd0a517b	-0.033769112
172	0xbd90e6e7	-0.07075291
173	0x3d7aedd6	0.061261974
174	0xbcd97505	-0.026545057
175	0xbd0bc16f	-0.03412002
176	0x3d1cebb9	0.03831074
177	0xbcae4b34	-0.021276094
178	0xbd121c50	-0.035671532
179	0xbd1d27b7	-0.038367953
180	0xba948754	-0.0011331835
181	0x3cc192c4	0.023629554
182	0xbd83e0c2	-0.064393535
183	0x3d489c5a	0.048977233
184	0xbc30e910	-0.010797754
185	0x3d5754b5	0.052571017
186	0xbd89bffd	-0.06726072
187	0xbcab09d6	-0.020878714
188	0xbcf32c66	-0.029684257
189	0xbd7eaf51	-0.062178914
190	0xbbb59fef	-0.005542747
191	0x3ca3f75c	0.020015411
192	0x3d041448	0.032245904
193	0xbd3abd37	-0.045590606
194	0xbd494ab7	-0.04914352
195	0x3cebfb02	0.028806213
196	0x3d84fe25	0.06493787
197	0xbd11ce39	-0.03559706
198	0x3c5e4884	0.013567094
199	0xbcfb33ac	-0.030664288
200	0xbdac6d6f	-0.0841931
201	0x3d6ffd07	0.058590915
202	0x3d64b111	0.055832926
203	0xbcd23d2b	-0.025663933
204	0xbdd60889	-0.10450847
205	0x3d0ff6ad	0.035147358
206	0xbd92791b	-0.07152005
207	0x3a9186bd	0.0011102777
208	0xbca66235	-0.0203105
209	0x3c9eaf99	0.01937084
210	0xbd6657ef	-0.056236204
211	0x3be2f953	0.0069266944
212	0xbdec3b4a	-0.11534746
213	0xbd01cee7	-0.031691458
214	0x3c1649ea	0.009172896
215	0x3d55faa8	0.052240998
216	0x3cb5c8ab	0.022190413
217	0xbd684dd7	-0.05671486
218	0xbd9a1356	-0.07523219
219	0xbdb21bca	-0.086967066
220	0x3cff8179	0.031189667
221	0x3be2ddd0	0.0069234148
222	0x3b208472	0.0024493006
223	0xbd4e0dca	-0.05030612
224	0x3d4c1f43	0.0498345
225	0xbc84ce7d	-0.016211743
226	0xbda353a9	-0.07974941
227	0xbc993aae	-0.018704738
228	0xbd9427c0	-0.07234144
229	0xbcab0fb4	-0.020881511
230	0xbcd375bb	-0.025812974
231	0xbd0176aa	-0.031607307
232	0x3d596e0e	0.053083472
233	0xbc555c07	-0.013022429
234	0x3da7a27e	0.0818529
235	0xbb44d596	-0.0030034534
236	0xbd72b98e	-0.05925899
237	0x3d3f8368	0.04675618
238	0x3d9b5f5e	0.07586549
239	0xbca909a9	-0.02063449
240	0xbd7ecab9	-0.06220505
241	0xbe06eae5	-0.13175543
242	0xbd734ac2	-0.059397466
243	0xbd46e5b3	-0.048558902
244	0x3ce4085e	0.027836021
245	0x3d496c69	0.049175654
246	0x3b6caee1	0.0036114978
247	0x3b0fa856	0.0021920404
248	0xbc9efde0	-0.019408166
249	0xbd200acf	-0.039072808
250	0xbd9a04cc	-0.07520446
251	0x3d129701	0.03578854
252	0x3ca6bf8a	0.020355005
253	0x3d8ff840	0.07029772
254	0x3baf5e34	0.005351806
255	0xbdbafb36	-0.09129946

predictor/Att1/l_q2/b f4 [96]
0	0x00000000	0.0
1	0x00000000	0.0
2	0x00000000	0.0
3	0x00000000	0.0
4	0x00000000	0.0
5	0x00000000	0.0
6	0x00000000	0.0
7	0x00000000	0.0
8	0x00000000	0.0
9	0x00000000	0.0
10	0x00000000	0.0
11	0x00000000	0.0
12	0x00000000	0.0
13	0x00000000	0.0
14	0x00000000	0.0
15	0x00000000	0.0
16	0x00000000	0.0
17	0x00000000	0.0
18	0x00000000	0.0
19	0x00000000	0.0
20	0x00000000	0.0
21	0x00000000	0.0
22	0x00000000	0.0
23	0x00000000	0.0
24	0x00000000	0.0
25	0x00000000	0.0
26	0x00000000	0.0
27	0x00000000	0.0
28	0x00000000	0.0
29	0x00000000	0.0
30	0x00000000	0.0
31	0x00000000	0.0
32	0x00000000	0.0
33	0x00000000	0.0
34	0x00000000	0.0
35	0x00000000	0.0
36	0x00000000	0.0
37	0x00000000	0.0
38	0x00000000	0.0
39	0x00000000	0.0
40	0x00000000	0.0
41	0x00000000	0.0
42	0x00000000	0.0
43	0x00000000	0.0
44	0x00000000	0.0
45	0x00000000	0.0
46	0x00000000	0.0
47	0x00000000	0.0
48	0x00000000	0.0
49	0x00000000	0.0
50	0x00000000	0.0
51	0x00000000	0.0
52	0x00000000	0.0
53	0x00000000	0.0
54	0x00000000	0.0
55	0x00000000	0.0
56	0x00000000	0.0
57	0x00000000	0.0
58	0x00000000	0.0
59	0x00000000	0.0
60	0x00000000	0.0
61	0x00000000	0.0
62	0x00000000	0.0
63	0x00000000	0.0
64	0x00000000	0.0
65	0x00000000	0.0
66	0x00000000	0.0
67	0x00000000	0.0
68	0x00000000	0.0
69	0x00000000	0.0
70	0x00000000	0.0
71	0x00000000	0.0
72	0x00000000	0.0
73	0x00000000	0.0
74	0x00000000	0.0
75	0x00000000	0.0
76	0x00000000	0.0
77	0x00000000	0.0
78	0x00000000	0.0
79	0x00000000	0.0
80	0x00000000	0.0
81	0x00000000	0.0
82	0x00000000	0.0
83	0x00000000	0.0
84	0x00000000	0.0
85	0x00000000	0.0
86	0x00000000	0.0
87	0x00000000	0.0
88	0x00000000	0.0
89	0x00000000	0.0
90	0x00000000	0.0
91	0x00000000	0.0
92	0x00000000	0.0
93	0x00000000	0.0
94	0x00000000	0.0
95	0x00000000	0.0

predictor/Att1/l_k2/W f4 [96, 384, 1]
0	0xbc5b66b0	-0.013391182
1	0xbd8b4f35	-0.06802217
2	0x3d65c484	0.056095615
3	0xbca2e70f	-0.019885568
4	0xbcfbce26	-0.030737948
5	0xbb533e45	-0.003223316
6	0x3d8c8a2c	0.06862292
7	0xbb95af20	-0.0045679957
8	0x3da855b0	0.082194686
9	0x3bb13f49	0.0054091555
10	0xbd2a0a75	-0.04151388
11	0xbc697353	-0.014248687
12	0xbd04deb1	-0.032438938
13	0xbd2cd652	-0.04219658
14	0xbd374f14	-0.04475315
15	0x3d0149d7	0.03156456
16	0xbcf4c4f4	-0.02987907
17	0xbc57e479	-0.013177031
18	0x3c85518c	0.016274236
19	0xbc3bbfca	-0.0114593
20	0xbd5b1ede	-0.053496234
21	0xbb8f0592	-0.0043646777
22	0xbcbcd533	-0.02305088
23	0xbdab6ae5	-0.08369998
24	0xbd8af7b8	-0.0678553
25	0xbc52f3dd	-0.012875524
26	0xbcf52e7e	-0.029929396
27	0xbd4c7e1e	-0.049924962
28	0xbcd8cf11	-0.026465924
29	0xbde7cdad	-0.113185264
30	0xbc676b84	-0.014124755
31	0xbe465179	-0.19367017
32	0x3b0b8f25	0.0021295038
33	0x3d568053	0.052368473
34	0x3d8153c3	0.063148044
35	0xbd85a868	-0.065262616
36	0xbd0c10dc	-0.034195766
37	0xbc958b10	-0.018254787
38	0x3d2cd4b8	0.042195052
39	0xbcb98a10	-0.022648841
40	0xbbcb5c05	-0.006206038
41	0x3df3e672	0.11909188
42	0xbe18b0e4	-0.14911228
43	0xbd3523cd	-0.044223595
44	0xbd07e459	-0.033176754
45	0xbcc72400	-0.024309158
46	0x3d5506fc	0.052008614
47	0x3d541ea2	0.051787026
48	0xbc22b527	-0.009930885
49	0x3cff850d	0.031191373
50	0x3b86e64c	0.004116809
51	0x3d7dfdc4	0.062009588
52	0x3d5353a2	0.05159343
53	0x3d995363	0.07486608
54	0xbcd31f52	-0.02577177
55	0xbd9066d4	-0.07050863
56	0xbd0921f6	-0.033479653
57	0xbcace190	-0.02110365
58	0x3d912f3a	0.07089086
59	0xbd64d960	-0.055871367
60	0xbbe0aaf0	-0.006856315
61	0xbd4574c7	-0.04820707
62	0x3d1662ae	0.036715202
63	0x3d67839b	0.056521993
64	0x3c7ed6d1	0.015554146
65	0x3d4e8e66	0.05042877
66	0xbbb339c7	-0.005469534
67	0xbbc2bf32	-0.0059432024
68	0xbdd0a884	-0.10188392
69	0x3be325e8	0.006932009
70	0xbd343b04	-0.044001594
71	0x3d84c3b0	0.06482637
72	0x3c443d1a	0.011977458
73	0x3d41f2c0	0.047350645
74	0x3cd51884	0.026012667
75	0x3bd1afb0	0.0063991174
76	0xbd9cdca7	-0.076592736
77	0x3d446978	0.047952145
78	0x3d32614c	0.04354982
79	0xbca202ff	-0.01977682
80	0xbd6aa2c1	-0.05728412
81	0xbd22d31e	-0.03975212
82	0xbd7395a8	-0.059468895
83	0x3d8e1a16	0.06938569
84	0x3dae45cf	0.08509409
85	0x3dbb6f9f	0.091521494
86	0x3d6ff80e	0.058586173
87	0x3c6d4849	0.014482566
88	0x3d0646de	0.032782428
89	0xbda6141a	-0.08109303
90	0xbd0a81e3	-0.033815276
91	0xbda925b4	-0.082591444
92	0xbc073772	-0.008252965
93	0x3d3739da	0.044732906
94	0x3cd032e8	0.025414899
95	0x3d8f19a2	0.06987311
96	0xbcf5792d	-0.029965008
97	0x3d93244d	0.07184658
98	0xbcb8020c	-0.022461914
99	0x3cd02ca9	0.02541192
100	0xbd884e69	-0.066555806
101	0x3dfbc0af	0.12292611
102	0x3d070012	0.03295905
103	0xbb983d5e	-0.0046459874
104	0x3b35c5d9	0.0027736335
105	0x3a9f5c73	0.0012158289
106	0xbc5f2f43	-0.013622108
107	0x3d672a76	0.05643698
108	0xbc5ecd90	-0.013598815
109	0xbdd3f9c5	-0.10350374
110	0x3ba18727	0.0049294415
111	0x3d5b4ff9	0.053543065
112	0xbdbc2bbd	-0.0918803
113	0xbd40fecc	-0.047117993
114	0x3dad8fcb	0.08474692
115	0xbd5e39cf	-0.05425435
116	0xbd29971b	-0.04140387
117	0xbca7c4fa	-0.020479668
118	0x3da20efe	0.07913016
119	0xbc64ad03	-0.013957265
120	0xbc8f4bbe	-0.017492171
121	0x3a963811	0.0011460801
122	0x3c18cbe2	0.009325953
123	0xbdc629e2	-0.09675957
124	0xbcf1b458	-0.02950494
125	0xb98f44ec	-0.00027326436
126	0xbcaa8557	-0.020815535
127	0x3caff29b	0.021477988
128	0xbd2dd1b0	-0.0424363
129	0x3d27d650	0.04097587
130	0xbd0d1954	-0.034447983
131	0xbc4b2852	-0.01239975
132	0x3db99f45	0.090635814
133	0xbd5abd73	-0.05340333
134	0xbd886b00	-0.06661034
135	0xbd45149c	-0.048115358
136	0x3d55dee5	0.052214522
137	0xbd4dd411	-0.05025107
138	0x3c833568	0.016016677
139	0x3b08e0be	0.002088591
140	0xbc41df72	-0.011833059
141	0xbd628a1e	-0.0553075
142	0xbd0f867d	-0.035040367
143	0xbc7882c5	-0.015167897
144	0x3cafca74	0.021458842
145	0x3d8aee8d	0.06783781
146	0x3cb72bc1	0.02235973
147	0xbc237742	-0.009977164
148	0x3d008d21	0.03138459
149	0x3c689f24	0.014198098
150	0xbcf0fbb8	-0.029416904
151	0x3cfb741c	0.030695014
152	0x3daf0ce7	0.08547383
153	0xbba44c42	-0.0050139735
154	0x3d164864	0.03669013
155	0x3c54200e	0.012947096
156	0xbdc19691	-0.094525464
157	0xbccccfaf	-0.025001375
158	0x3c587335	0.013211061
159	0xbd421742	-0.04738546
160	0xbda4d219	-0.080478854
161	0x3d53bc3f	0.051693197
162	0x3daac635	0.08338586
163	0x3d0ad0be	0.03389048
164	0x3cbd709c	0.023124985
165	0xbd86fddd	-0.06591389
166	0xba6ad512	-0.00089581416
167	0x3d66632a	0.056246914
168	0xbd1d4b08	-0.038401634
169	0x3d4bc1dc	0.049745426
170	0xbb0477a5	-0.0020212915
171	0x3dfb6923	0.122759126
172	0xbcc71cac	-0.024305664
173	0x3c46e77b	0.01214015
174	0xbd95ec83	-0.07320502
175	0xbd0b352e	-0.033986263
176	0x3d37ed95	0.04490431
177	0xbd82ac24	-0.063804895
178	0xbdcea768	-0.10090524
179	0xbd2cc544	-0.042180315
180	0x3d423574	0.047414258
181	0xbcb41e17	-0.021987004
182	0x3d3929e7	0.045205977
183	0xbc3df0ac	-0.011593025
184	0x3c7e0cf7	0.015506021
185	0x3ce3eea8	0.027823761
186	0x3d383b5a	0.044978477
187	0x3b117900	0.0022197366
188	0x3d8dda43	0.06926396
189	0xbd06d8fa	-0.03292177
190	0x3d707e94	0.058714464
191	0xbdea7998	-0.114489734
192	0xbdc9b353	-0.098486565
193	0xbd2cfa51	-0.042230908
194	0x3c566989	0.013086685
195	0x3d1fc498	0.039005846
196	0xbdea96e0	-0.11454558
197	0x3d35c782	0.04437972
198	0xbc9f65db	-0.019457748
199	0xbcf60acb	-0.030034443
200	0xbd77a5b6	-0.06046077
201	0xbd3f78e2	-0.046746142
202	0xbc1ea310	-0.009682432
203	0xbd2c07f3	-0.04199977
204	0xbb75e8a9	-0.003752271
205	0xbdcc54e3	-0.09977128
206	0xbccd32ec	-0.025048696
207	0x3d99b41d	0.07505057
208	0x3a2e7db6	0.00066563056
209	0xbb623434	-0.0034515979
210	0x3d153136	0.036423884
211	0xbd478fa5	-0.048720974
212	0x3cbb5f48	0.022872582
213	0x3d8de642	0.06928684
214	0xbb4c2ce5	-0.003115469
215	0xbcede30b	-0.029038927
216	0xbcd89314	-0.02643732
217	0xbbc5346e	-0.006018213
218	0x3d9a06d3	0.07520833
219	0x3e0c37f6	0.13693222
220	0x3c56fd7a	0.013121957
221	0x3d949a63	0.072560094
222	0xbb573b41	-0.0032841715
223	0xbc8c14d4	-0.017099775
224	0x3db01240	0.08597231
225	0x3d217147	0.03941467
226	0xbda02f34	-0.07821503
227	0x3d45278d	0.04813342
228	0xbdc6782c	-0.0969089
229	0x3d9f4fe6	0.07778911
230	0x3d805289	0.06265742
231	0x3d299dc8	0.041410238
232	0x3d1bd4b0	0.03804463
233	0xbdb38570	-0.087656856
234	0xba8d2676	-0.0010768909
235	0xbba2dc58	-0.0049701147
236	0x3d973ed6	0.07385032
237	0xbc2cb69f	-0.010541587
238	0x3da3531d	0.07974837
239	0x3daf1297	0.085484676
240	0xbd16683a	-0.036720492
241	0xbd696b38	-0.056987017
242	0x3d0fda8b	0.03512053
243	0xbe18724a	-0.14887348
244	0x3d15d4b3	0.0365798
245	0xbc43733a	-0.011929328
246	0xbc2088cc	-0.00979824
247	0xbd9eb61f	-0.077495806
248	0x3de5b3dd	0.11215947
249	0x3b033f25	0.002002665
250	0xbd7891f5	-0.06068607
251	0x3ca76b05	0.020436773
252	0xbcd859d3	-0.026410019
253	0xbc83b9c1	-0.016079785
254	0xbc8da6a4	-0.017291375
255	0xbd42fa55	-0.047602016

predictor/Att1/l_k2/b f4 [96]
0	0x00000000	0.0
1	0x00000000	0.0
2	0x00000000	0.0
3	0x00000000	0.0
4	0x00000000	0.0
5	0x00000000	0.0
6	0x00000000	0.0
7	0x00000000	0.0
8	0x00000000	0.0
9	0x00000000	0.0
10	0x00000000	0.0
11	0x00000000	0.0
12	0x00000000	0.0
13	0x00000000	0.0
14	0x00000000	0.0
15	0x00000000	0.0
16	0x00000000	0.0
17	0x00000000	0.0
18	0x00000000	0.0
19	0x00000000	0.0
20	0x00000000	0.0
21	0x00000000	0.0
22	0x00000000	0.0
23	0x00000000	0.0
24	0x00000000	0.0
25	0x00000000	0.0
26	0x00000000	0.0
27	0x00000000	0.0
28	0x00000000	0.0
29	0x00000000	0.0
30	0x00000000	0.0
31	0x00000000	0.0
32	0x00000000	0.0
33	0x00000000	0.0
34	0x00000000	0.0
35	0x00000000	0.0
36	0x00000000	0.0
37	0x00000000	0.0
38	0x00000000	0.0
39	0x00000000	0.0
40	0x00000000	0.0
41	0x00000000	0.0
42	0x00000000	0.0
43	0x00000000	0.0
44	0x00000000	0.0
45	0x00000000	0.0
46	0x00000000	0.0
47	0x00000000	0.0
48	0x00000000	0.0
49	0x00000000	0.0
50	0x00000000	0.0
51	0x00000000	0.0
52	0x00000000	0.0
53	0x00000000	0.0
54	0x00000000	0.0
55	0x00000000	0.0
56	0x00000000	0.0
57	0x00000000	0.0
58	0x00000000	0.0
59	0x00000000	0.0
60	0x00000000	0.0
61	0x00000000	0.0
62	0x00000000	0.0
63	0x00000000	0.0
64	0x00000000	0.0
65	0x00000000	0.0
66	0x00000000	0.0
67	0x00000000	0.0
68	0x00000000	0.0
69	0x00000000	0.0
70	0x00000000	0.0
71	0x00000000	0.0
72	0x00000000	0.0
73	0x00000000	0.0
74	0x00000000	0.0
75	0x00000000	0.0
76	0x00000000	0.0
77	0x00000000	0.0
78	0x00000000	0.0
79	0x00000000	0.0
80	0x00000000	0.0
81	0x00000000	0.0
82	0x00000000	0.0
83	0x00000000	0.0
84	0x00000000	0.0
85	0x00000000	0.0
86	0x00000000	0.0
87	0x00000000	0.0
88	0x00000000	0.0
89	0x00000000	0.0
90	0x00000000	0.0
91	0x00000000	0.0
92	0x00000000	0.0
93	0x00000000	0.0
94	0x00000000	0.0
95	0x00000000	0.0

predictor/Att1/l_q/W f4 [384, 96, 1]
0	0xbe1cbb6e	-0.15305874
1	0xbe0f49a7	-0.1399294
2	0xbdc7c09e	-0.09753536
3	0x3c95dfd4	0.018295206
4	0xbccbffb4	-0.024902202
5	0xbe0aa031	-0.1353767
6	0x3db1f1ba	0.08688684
7	0xbcfca69e	-0.030841168
8	0xbe0662ea	-0.1312367
9	0xbd1f0b30	-0.03882903
10	0xba08f9bf	-0.00052252033
11	0x3d76bbbe	0.06023764
12	0xbc09fc7c	-0.008422013
13	0xbd058c0d	-0.032604266
14	0xbd316cb7	-0.04331657
15	0x3e3cfd09	0.184559
16	0x3de91b8f	0.113822095
17	0xbd964375	-0.07337085
18	0x3d1a1c3a	0.037624575
19	0xbd48adc2	-0.048993833
20	0x3d0e91f5	0.034807164
21	0xbe1694b1	-0.14705159
22	0x3dd95388	0.106116354
23	0x3e00a9f2	0.12564829
24	0x3e51d9ad	0.20493193
25	0x3e2ca85e	0.16861102
26	0xbd9c44b0	-0.076302886
27	0xbe256220	-0.16150713
28	0x3c62ae20	0.01383546
29	0x3dd9c128	0.10632545
30	0xbcaf7a69	-0.021420674
31	0x3deaa6b1	0.11457575
32	0x3c827be5	0.015928218
33	0xbe09e760	-0.13467169
34	0x3e1b949d	0.1519341
35	0x3dae020a	0.08496483
36	0x3d2d04a8	0.04224077
37	0xbcdcccf5	-0.0269532
38	0xbd4c182c	-0.04982774
39	0x3e4084af	0.18800615
40	0x3d94b0f9	0.07260317
41	0x3d180702	0.03711606
42	0xbd9efb20	-0.07762742
43	0x3db91fe5	0.090392865
44	0x3e04a892	0.1295493
45	0x3e770b90	0.24125504
46	0xbdf76731	-0.12080229
47	0x3e2f2bb9	0.17106523
48	0x3d3a5dcf	0.04549962
49	0x3d82e105	0.06390575
50	0x3e238cfc	0.1597175
51	0x3cc63db3	0.024199342
52	0x3d4cce27	0.05000129
53	0x3e8e5dad	0.27805844
54	0x3dba0b0d	0.09084139
55	0x3d32f0ad	0.043686558
56	0x3e440642	0.19143012
57	0x3d3ba998	0.045816034
58	0x3d6627d4	0.056190327
59	0xbda55345	-0.08072523
60	0xbe0368a2	-0.12832883
61	0xbc42ff75	-0.011901726
62	0xbda0f32f	-0.078588836
63	0x3e162d70	0.1466577
64	0xbdc9aeb4	-0.09847775
65	0x3bb10a4d	0.0054028393
66	0x3d37fa5a	0.04491649
67	0x3ea5ecac	0.3240713
68	0x3db1da8a	0.08684261
69	0x3d69ad48	0.05705002
70	0xbd96505e	-0.073395476
71	0x3b861e50	0.004092969
72	0x3e643a06	0.22287759
73	0xbe029199	-0.12750854
74	0xbdd9f210	-0.10641873
75	0x3deb3f79	0.11486716
76	0x3d6ff620	0.058584332
77	0x3d9dfc1a	0.077141
78	0xbd988b39	-0.074484296
79	0x3de05ea4	0.10955551
80	0x3ba611dd	0.0050680474
81	0x3c73edbe	0.014888225
82	0x3e58fd49	0.2119037
83	0x3da70f94	0.08157268
84	0x3ce7a1d7	0.028275413
85	0xbd79b3c1	-0.060962442
86	0xbd54f751	-0.05199367
87	0xbe082f83	-0.13299374
88	0xbd6fa8e3	-0.058510672
89	0x3c44d557	0.012013755
90	0xbc484126	-0.012222564
91	0xbe115923	-0.14194159
92	0x3dfe30f8	0.12411684
93	0xbd36d757	-0.044638958
94	0x3d461dc7	0.04836824
95	0x3c91b725	0.017787525
96	0xbe4202fb	-0.1894645
97	0xbd872ab4	-0.06599942
98	0xbd867b0b	-0.06566437
99	0x3d23b86d	0.039970804
100	0xbe2629f5	-0.16226943
101	0x3e108fc8	0.14117348
102	0x3d216c01	0.03940964
103	0x3cf8751f	0.030329285
104	0x3d056051	0.032562558
105	0x3e5f9508	0.21834195
106	0x3db6fc3f	0.08934831
107	0x3e71e7cf	0.23623584
108	0x3e6aa672	0.22915056
109	0xbe1be987	-0.15225802
110	0xbcf36a2d	-0.029713714
111	0xbe5bbae6	-0.21458015
112	0xbd82b854	-0.06382814
113	0x3e15abde	0.14616343
114	0xbd4af558	-0.049550384
115	0xbcce13ff	-0.02515602
116	0x3c9fbd61	0.019499483
117	0x3c658d3d	0.014010725
118	0x3d3edbe9	0.04659644
119	0x3da7390e	0.08165179
120	0xbdfcb9ec	-0.12340149
121	0x3e240fe0	0.16021681
122	0x3dade36c	0.08490643
123	0xbe041acc	-0.12900847
124	0xbcea5569	-0.02860518
125	0xbd3aca78	-0.045603245
126	0xbd35e7c9	-0.0444105
127	0xbb0b1d5a	-0.0021227212
128	0xbea8984b	-0.3292869
129	0x3e065fdd	0.13122506
130	0x3da150b5	0.07876722
131	0x3d87d047	0.066315226
132	0xbd4cc1d1	-0.049989525
133	0x3cd28a10	0.025700599
134	0x3d728fb0	0.059219062
135	0x3c868b3c	0.016423814
136	0x3c05a302	0.00815654
137	0x3d38c99b	0.04511414
138	0x3d2b931d	0.041888345
139	0x3d802787	0.06257539
140	0xbdc6037e	-0.09668635
141	0x3d9cfb60	0.076651335
142	0x3cb3bc18	0.021940276
143	0xbde349fc	-0.11098096
144	0x3cbb7ea3	0.022887534
145	0xbd0cfae5	-0.03441896
146	0x3daf8dfd	0.08572004
147	0x3e1914eb	0.14949386
148	0x3c48b63d	0.01225048
149	0xbde29044	-0.11062673
150	0x3dbba4ad	0.09162269
151	0x3d1a82b9	0.037722323
152	0x3b1f8ed8	0.0024346616
153	0x3dca7821	0.09886194
154	0x3e472c80	0.19450569
155	0x3d1e2a14	0.038614348
156	0xbe63dd8c	-0.22252482
157	0x3d5470f6	0.05186554
158	0xbe0f926f	-0.14020704
159	0x3d487812	0.048942633
160	0xbded0494	-0.11573139
161	0xbd41fe24	-0.047361508
162	0xbce0fcd7	-0.027464313
163	0xbc8bf1cd	-0.017083073
164	0x3d519827	0.051170494
165	0x3d3ecbb4	0.046580985
166	0x3e083514	0.13301498
167	0xbc91ad4d	-0.017782832
168	0x3d36514d	0.04451113
169	0xbe007d24	-0.12547737
170	0x3d61b950	0.05510837
171	0x3d980786	0.0742331
172	0x3e036234	0.1283043
173	0x3dff8528	0.124765694
174	0x3ddbf9cd	0.10741005
175	0x3e12ddd2	0.1434243
176	0xbde26418	-0.110542476
177	0x3e3f51aa	0.18683496
178	0xbd30f25f	-0.043199893
179	0x3b4c3de5	0.0031164822
180	0x3e217c50	0.15770078
181	0xbbe4533e	-0.006967931
182	0xbd11e3e1	-0.035617713
183	0x3c056269	0.008141139
184	0xbdd71a28	-0.10503036
185	0x3d79e95b	0.06101356
186	0xbad25697	-0.0016047534
187	0x3ded6e2c	0.11593279
188	0x3df2f5a0	0.118632555
189	0x3dddc1a6	0.10827951
190	0xbc1e7537	-0.009671501
191	0xbd14d54a	-0.03633622
192	0xbba709ae	-0.0050975895
193	0xbd1e1414	-0.038593367
194	0xbe08c9f9	-0.13358296
195	0x3dacf11c	0.084444255
196	0xbcaae706	-0.020862114
197	0x3cd1e76f	0.025623051
198	0x3dd7821f	0.105228655
199	0xbc538e3f	-0.012912332
200	0x3d920920	0.07130647
201	0xbd55af9a	-0.05216942
202	0x3da907b6	0.08253424
203	0xbd3922bf	-0.045199152
204	0xbda36786	-0.0797873
205	0xbd8a5d2e	-0.06756054
206	0xbcbe239e	-0.023210343
207	0xbdfc951e	-0.12333129
208	0x3e73acde	0.23796412
209	0x3d154a04	0.03644754
210	0xbe01459b	-0.12624209
211	0x3ca56326	0.02018888
212	0x3e3062a5	0.1722513
213	0xbb949ad4	-0.0045350585
214	0xbd9c60a2	-0.07635619
215	0xbe330111	-0.17480876
216	0x3ceabf13	0.028655564
217	0x3e0f8fcd	0.140197
218	0xbe731213	-0.23737364
219	0x3c633287	0.013867027
220	0xbd8631c4	-0.06552461
221	0x3d0edeb4	0.034880355
222	0xbe03f3e8	-0.12886012
223	0xbd07d9a2	-0.033166535
224	0x3c5d4d42	0.013507189
225	0xbd9264aa	-0.071481064
226	0x3d26d2d8	0.04072842
227	0x3d22a2b1	0.039705936
228	0x3df292d9	0.11844415
229	0x3dce1cbf	0.10064077
230	0x3d92e2db	0.071721755
231	0xbe1b7e50	-0.15184903
232	0xbd16e9a5	-0.036843915
233	0xbc83c89c	-0.016086869
234	0xbc85ba88	-0.016324297
235	0xbb62b8f1	-0.0034595097
236	0x3b685d92	0.0035456163
237	0x3d180205	0.0371113
238	0x3df7550d	0.12076769
239	0x3cb7529a	0.022378255
240	0xbc7c9502	-0.015416386
241	0x3d79c78e	0.060981326
242	0x3d9d4d89	0.07680804
243	0xbcd0ea86	-0.025502454
244	0xbe5cd35d	-0.21565004
245	0x3d9989d4	0.07496992
246	0xbbf41017	-0.007448207
247	0xbda8f999	-0.08250732
248	0x3d84d33d	0.06485603
249	0xbe559fae	-0.20861694
250	0x3e02b2d2	0.12763527
251	0x3db90515	0.090341724
252	0xbe00be80	-0.1257267
253	0xbe92aa4e	-0.28645557
254	0x3cc4d8e1	0.024029197
255	0xbde75772	-0.11295976
